Pytorch/model/weights_best.pth (torch, 973871 bytes, 8 tensors)

fc.1.0.weight f4 [256, 784]
0.028956221 0.34471974 0.16161712 0.35631394 -0.26271385 0.025171584 0.026484812 0.12757237
-0.17104097 0.010395016 0.08090799 0.1754631 0.024999997 -0.11113793 0.066055425 0.18522066
0.18405466 0.19293353 0.035582855 -0.16507171 -0.1548723 0.024302747 -0.08482746 -0.12535286
0.25280014 0.34026715 0.11422631 0.078284144 -0.04441293 0.28859258 0.15326898 0.40958244
0.05480254 0.037425544 -0.01762343 -0.108863875 -0.028024487 0.0077175507 -0.0617788 -0.04307905
0.1074744 0.07185765 0.11664183 0.05469566 0.06189154 -0.17699409 0.011458177 0.046207104
-0.06932044 0.2544946 0.22600694 0.19295299 0.18332574 0.3577263 0.23026834 0.20986529
0.14932483 0.017637156 0.12883686 0.40404394 0.19303335 0.0801391 0.07089781 -0.025395596
0.032789536 0.007790083 0.045604203 9.668822e-05 -0.05531963 0.084672935 0.101359755 -0.012241864
-0.0070179002 0.004046262 0.013908949 -0.13523057 -0.09691657 0.03195087 0.07466757 0.23071213
0.10293482 0.21687365 0.110562585 0.2846109 -0.09041715 0.22429879 0.5335373 0.26009813
0.120963775 -0.01298191 0.08601633 0.021065336 0.09825065 0.00418959 0.06397478 0.08013776
0.014842153 -0.038011454 -0.029482171 -0.056352638 -0.02118541 -0.1346048 -0.05429205 -0.15836553
-0.07739426 -0.085336134 -0.02109221 0.2488666 0.30284798 0.37288105 0.1257806 0.3399097
0.22319648 0.36142558 0.5563872 0.29897887 0.06129002 0.19277275 0.12826887 -0.0021135872
0.024650667 -0.091031276 -0.009794722 -0.011673629 -0.0339203 -0.045968447 -0.059963875 -0.017933616
-0.122561045 -0.08648902 -0.06343396 -0.2006337 -0.044132452 0.05836035 0.06077806 0.19801337
0.2674726 0.20105205 0.20909879 0.11633578 0.37218496 0.42099702 0.4860315 0.0034394863
0.14980721 0.2430781 0.16640665 0.0023590766 0.06215962 -0.01417373 0.026162056 0.024725523
0.078021996 -0.038066596 -0.026984818 -0.023351397 -0.107617594 -0.017793022 -0.10038501 -0.10180326
-0.011987978 -0.010509852 0.096327886 0.16986461 0.029074453 0.06582177 0.2164518 0.30968982
0.4963758 0.46430543 0.17061062 0.07753675 -0.0032009117 0.06822665 0.12837686 -0.048236534
-0.015807698 0.06594717 0.0632167 -0.0016011624 0.009243353 0.049374603 -0.07185417 -0.012927717
0.04107953 -0.036019675 -0.0128027005 -0.09193373 -0.14758754 0.09633315 0.0658819 0.029119866
-0.031459298 0.20871761 0.30390903 0.5043344 0.36710995 0.4693998 0.2512609 0.055103593
-0.101870954 -0.0015246453 0.011953572 -0.048567925 -0.10446574 0.03561602 0.028763065 0.09093455
0.078180306 0.044591334 -0.09789575 0.006759552 0.15462954 -0.013485152 -0.030569041 -0.012617277
-0.021354083 0.034307763 0.07341887 0.012195776 0.04335246 0.18662298 0.12929152 0.5016446
0.4386569 0.2883259 0.31622496 -0.068770505 -0.02266996 -0.020117097 0.10692891 -0.013484296
-0.08223178 -0.0922081 -0.021046702 0.09309331 0.07906834 0.055628993 -0.09940571 0.06722493
-0.013973007 -0.003930605 -0.12266836 -0.062103316 0.05638381 0.07061851 0.013431428 -0.008817346
0.046906304 0.05197715 0.06497328 0.16014579 0.37125516 0.25045687 0.11473916 -0.15125732
00000000: 9935 ed3c 1b7f b03e f57e 253e c86e b63e
00000010: 6e82 86be a334 ce3c adf6 d83c 55a2 023e
00000020: 5d25 2fbe db4f 2a3c 17b3 a53d 99ac 333e
00000030: cbcc cc3c 489c e3bd 1148 873d 7caa 3d3e
00000040: d378 3c3e 5e90 453e 54bf 113d 8f08 29be
00000050: d896 1ebe 8e16 c73c 05ba adbd 805c 00be
00000060: 056f 813e 7f37 ae3e 7cef e93d 7053 a03d
00000070: 55ea 35bd 68c2 933e 8bf2 1c3e cab4 d13e
00000080: a178 603d 874b 193d 035f 90bc 06f4 debd
00000090: 9c93 e5bc 82e3 fc3b c40b 7dbd a873 30bd
000000a0: 8a1b dc3d 1b2a 933d e9e1 ee3d 8e08 603d
000000b0: fc81 7d3d f03d 35be 14bb 3b3c a943 3d3d
000000c0: e0f7 8dbd 1e4d 823e 5d6e 673e 7895 453e
000000d0: beb9 3b3e e727 b73e 77cb 6b3e ede6 563e
000000e0: 9ce8 183e cc7b 903c cfed 033e d9de ce3e
000000f0: 89aa 453e f81f a43d df32 913d 6d0a d0bc
00000100: 524e 063d f443 ff3b 79cb 3a3d 18c5 ca38
00000110: d696 62bd 0169 ad3d b495 cf3d 1992 48bc
00000120: 6af6 e5bb 8196 843b 5ce2 633c e279 0abe
00000130: 327c c6bd eade 023d 50eb 983d cd3f 6c3e
00000140: 7ecf d23d 2014 5e3e a36e e23d 85b8 913e
00000150: a02c b9bd 95ae 653e e795 083f 952b 853e
00000160: dbbb f73d 14b2 54bc 5429 b03d 3691 ac3c
00000170: a337 c93d d448 893b 3605 833d 441f a43d
00000180: 802c 733c e6b1 1bbd 9884 f1bc 06d2 66bd
00000190: 068d adbc d7d5 09be 5761 5ebd 932a 22be
000001a0: e280 9ebd b6c4 aebd 92c9 acbc e3d6 7e3e
000001b0: e40e 9b3e 44ea be3e a1cc 003e a508 ae3e
000001c0: 9e8d 643e c60c b93e 646f 0e3f c213 993e
000001d0: 3e0b 7b3d 3866 453e ea58 033e 1c84 0abb
000001e0: 32f0 c93c 9b6e babd 0b7a 20bc c042 3fbc
000001f0: 03f0 0abd 6949 3cbd ae9c 75bd 85e9 92bc
00000200: 4901 fbbd 2821 b1bd aae9 81bd ec72 4dbe
00000210: 3bc4 34bd 430b 6f3d 6af2 783d 04c4 4a3e
00000220: 2bf2 883e 97e0 4d3e fe1d 563e 7441 ee3d
00000230: 078f be3e ec8c d73e 1fd9 f83e 0169 613b
00000240: 1067 193e 77e9 783e 8166 2a3e bd9a 1a3b
00000250: 169b 7e3d ef38 68bc cf51 d63c 2e8d ca3c
00000260: ffc9 9f3d b8eb 1bbd 440f ddbc 6e4b bfbc
00000270: 9d66 dcbd acc2 91bc a896 cdbd 3a7e d0bd
00000280: 3969 44bc 8431 2cbc 8e47 c53d fdf0 2d3e
00000290: 8c2d ee3c 90cd 863d 8aa5 5d3e aa8f 9e3e
000002a0: f824 fe3e 71b9 ed3e 8db4 2e3e 96cb 9e3d
000002b0: 63c6 51bb 6aba 8b3d 3975 033e ac93 45bd
000002c0: 257f 81bc 4f0f 873d c277 813d 18de d1ba
000002d0: 6f71 173c 063d 4a3d 4728 93bd c6ce 53bc
000002e0: 0243 283d 5e89 13bd 6bc2 51bc c047 bcbd
000002f0: 3021 17be 514a c53d 17ed 863d c98c ee3c
00000300: 77db 00bd 12ba 553e f799 9b3e 0f1c 013f
00000310: d6f5 bb3e 2c55 f03e 45a5 803e 4eb4 613d
00000320: b8a1 d0bd 9bd6 c7ba ead8 433c 29ef 46bd
00000330: 22f2 d5bd 1be2 113d 85a0 eb3c e53b ba3d
00000340: ff1c a03d 67a5 363d 917d c8bd 3b7f dd3b
00000350: 3557 1e3e d4f0 5cbc ed6b fabc b2b8 4ebc
00000360: c2ee aebc 4c86 0c3d a25c 963d cbd0 473c
00000370: 5992 313d 181a 3f3e ff64 043e c86b 003f
00000380: a397 e03e 749f 933e 3de8 a13e 8dd7 8cbd
00000390: 5ab6 b9bc 9ccc a4bc 8bfd da3d 3ded 5cbc
000003a0: 2369 a8bd 9ad7 bcbd 226a acbc b5a7 be3d
000003b0: 95ee a13d 3adb 633d 3995 cbbd 39ad 893d
000003c0: 0aef 64bc 4ecc 80bb 8d39 fbbd 0c60 7ebd
000003d0: b6f2 663d 70a0 903d 7e0f 5c3c a176 10bc
000003e0: d320 403d fee5 543d b610 853d 42fd 233e
000003f0: 2815 be3e e23b 803e 5dfc ea3d 33e3 1abe

fc.1.0.bias f4 [256]
-0.033441767 0.39365262 -0.016080463 0.075011 -0.16583645 0.0048295697 -0.045459516 -0.08312532
0.217752 -0.07816898 -0.10918154 0.010035985 0.11468839 0.057114426 -0.14727603 0.30040824
0.091804445 0.04285142 -0.25278217 -0.13145378 0.22190644 -0.08401419 0.03445505 0.20582668
-0.135122 -0.078818224 0.005939206 -0.13028018 -0.1370495 -0.13053168 0.17330053 -0.13592964
-0.07754872 -0.13782404 -0.06017468 0.24453567 -0.27309993 0.14354557 -0.1927594 -0.056462508
0.06483777 -0.069435894 -0.050027054 -0.027705353 0.04184386 -0.077636406 0.04304286 0.01110772
-0.30442238 -0.24795333 -0.17785673 0.16167769 -0.0064128186 0.16847235 0.0075201173 -0.2022976
0.04854023 0.17972203 0.080248356 -0.14753236 0.029247595 0.16000508 0.21837603 -0.30665806
0.0047523994 0.36249924 -0.26898614 -0.09318299 0.25569087 0.10513856 0.05422398 0.30626002
0.106962875 -0.25193837 -0.29041636 -0.038479146 0.007896646 -0.3330642 -0.024070788 0.039900437
-0.11720078 -0.024436334 0.18033837 -0.26082182 -0.16017108 -0.46299908 -0.06659733 -0.10008653
0.113059886 0.11760433 -0.13442801 0.16854234 0.2843312 0.16348292 -0.37495422 0.032293674
-0.035187375 0.3567866 0.08631315 0.080618724 -0.14211892 0.018197512 0.16967408 -0.009087666
-0.19422248 0.10386214 0.24439318 -0.13520378 0.24052545 0.2870523 -0.1752113 -0.28550228
-0.3476071 -0.17824282 0.29201776 -0.060098767 -0.01974977 0.15895921 0.032998156 -0.2823646
-0.11020535 -0.15633851 -0.09587429 -0.1088583 -0.26117638 -0.22255982 -0.089642115 0.03602201
0.42608735 0.05024013 -0.04387933 -0.17246436 0.12235246 -0.17651685 -0.26260912 0.020760834
-0.3512195 -0.19644961 0.1116644 -0.017856479 0.08148743 0.22415937 -0.13341594 -0.069708236
-0.011041263 -0.06699403 0.021198172 -0.084916234 -0.19004557 -0.21281518 -0.15800945 -0.26471126
0.25624788 0.057973936 -0.14989041 0.17403398 -0.060813468 0.3379867 0.23778905 -0.04136655
0.019356232 0.10224364 0.10348515 -0.08424034 -0.1211196 -0.10641027 -0.0401426 0.19726242
-0.11461651 0.07897732 -0.017056849 -0.049816616 0.047804117 0.23668276 -0.11123073 0.14094622
0.009138146 0.067515016 -0.06954839 0.15924935 -0.08168651 0.111224376 0.030263156 -0.056390516
-0.062731154 0.08784991 -0.18284614 0.27489564 0.2768367 -0.30280605 0.102940716 0.38072675
0.13956298 0.02049429 -0.2416487 0.083482124 0.15400012 0.05914222 -0.16122648 0.47808576
0.15329929 0.08284115 -0.10733495 0.03611594 -0.16237904 0.26584178 0.09075129 -0.081411876
0.50317943 -0.025448423 0.20073655 0.12816867 -0.02604695 0.30805138 0.11485306 0.33301628
-0.16119257 0.08376782 0.056277767 -0.06700043 -0.2869439 -0.29487073 0.31781143 0.014174403
-0.072604835 -0.01865673 -0.13857636 -0.2361577 -0.06294029 -0.0088145025 -0.19813447 -0.05828188
-0.09274723 -0.017974583 -0.14967236 -0.08677815 -0.0065656523 -0.014906645 -0.10976679 -0.21341652
0.028367592 -0.3159063 0.00042859378 -0.37737915 0.10615503 0.27869758 -0.09967981 -0.037065107
-0.15943001 -0.1470563 -0.25724322 -0.07407354 -0.084335156 -0.009723148 -0.19595076 0.32916832
00000000: 3cfa 08bd d68c c93e 2dbb 83bc 5e9f 993d
00000010: 08d1 29be 5e41 9e3b c233 3abd 9c3d aabd
00000020: 61fa 5e3e 0f17 a0bd 929a dfbd f96d 243c
00000030: bfe1 ea3d d1f0 693d 87cf 16be 1ccf 993e
00000040: f803 bc3d f884 2f3d aa6c 81be d29b 06be
00000050: 713b 633e a20f acbd bd20 0d3d 3bc4 523e
00000060: 6c5d 0abe 736b a1bd ac9d c23b 2b68 05be
00000070: b456 0cbe 19aa 05be b275 313e 2431 0bbe
00000080: ddd1 9ebd bf21 0dbe ba79 76bd 8f67 7a3e
00000090: c1d3 8bbe 9cfd 123e b862 45be 3b45 67bd
000000a0: aac9 843d 6834 8ebd 2be9 4cbd 56f6 e2bc
000000b0: 7864 2b3d d6ff 9ebd b64d 303d 28fd 353c
000000c0: 40dd 9bbe 7ae7 7dbe 1320 36be d68e 253e
000000d0: 9f22 d2bb 0484 2c3e 516b f63b 1a27 4fbe
000000e0: 1fd2 463d 0d09 383e 4059 a43d b912 17be
000000f0: a798 ef3c 5fd8 233e f79d 5f3e 4902 9dbe
00000100: 04ba 9b3b 8099 b93e 8db8 89be b9d6 bebd
00000110: eae9 823e e352 d73d f719 5e3d 1dce 9c3e
00000120: 5a0f db3d 11fe 80be 74b1 94be 4f9c 1dbd
00000130: ef60 013c 6487 aabe 1a30 c5bc a46e 233d
00000140: f606 f0bd b52e c8bc 9faa 383e 708a 85be
00000150: e303 24be 370e edbe 2e64 88bd 2bfa ccbd
00000160: f18b e73d 8ada f03d 7fa7 09be 5d96 2c3e
00000170: dc93 913e 1168 273e 00fa bfbe 5f46 043d
00000180: a320 10bd bcac b63e f3c4 b03d 6e1b a53d
00000190: 9f87 11be f312 953c 0bbf 2d3e 6fe4 14bc
000001a0: 42e2 46be acb5 d43d 3542 7a3e dc72 0abe
000001b0: 4e4c 763e 85f8 923e 976a 33be 5b2d 92be
000001c0: 8ff9 b1be 4985 36be 5a83 953e 202a 76bd
000001d0: 45ca a1bc 34c6 223e 1329 073d 1892 90be
000001e0: 58b3 e1bd 3417 20be bd59 c4bd 1af1 debd
000001f0: e9b8 85be b9e6 63be 4996 b7bd d18b 133d
00000200: 1f28 da3e 98c8 4d3d d0ba 33bd 7f9a 30be
00000210: ed93 fa3d d5c0 34be b474 86be a012 aa3c
00000220: 0bd3 b3be 162a 49be 4eb0 e43d c047 92bc
00000230: e2e2 a63d 098a 653e 309e 08be 31c3 8ebd
00000240: 6ae6 34bc 2a34 89bd caa7 ad3c 90e8 adbd
00000250: 4e9b 42be 39ec 59be 3bcd 21be 3c88 87be
00000260: ec32 833e 1476 6d3d df7c 19be f735 323e
00000270: 8b17 79bd 980c ad3e f97e 733e f96f 29bd
00000280: f690 9e3c 1d65 d13d 06f0 d33d 3386 acbd
00000290: 8e0d f8bd a1ed d9bd 916c 24bd 29ff 493e
000002a0: 10bc eabd dcbe a13d ceba 8bbc 820c 4cbd
000002b0: 40ce 433d f75c 723e f0cc e3bd 3554 103e
000002c0: 2ab8 153c 5045 8a3d 636f 8ebd 4312 233e
000002d0: 424b a7bd 9bc9 e33d 70ea f73c bef9 66bd
000002e0: 3179 80bd a7ea b33d 053c 3bbe 1fbf 8c3e
000002f0: 8abd 8d3e 6509 9bbe 95d2 d23d 9eee c23e
00000300: 99e9 0e3e a4e3 a73c c272 77be adf8 aa3d
00000310: 35b2 1d3e 1d3f 723d 8e18 25be a8c7 f43e
00000320: 7dfa 1c3e 9fa8 a93d 6dd2 dbbd 4fee 133d
00000330: b146 26be 6a1c 883e d0db b93d 45bb a6bd
00000340: 5ed0 003f 3679 d0bc e28d 4d3e a63e 033e
00000350: 6a60 d5bc e9b8 9d3e 1538 eb3d 1c81 aa3e
00000360: aa0f 25be 768e ab3d 8483 663d 8537 89bd
00000370: 50ea 92be 4cf9 96be 2eb8 a23e c13b 683c
00000380: d8b1 94bd 00d6 98bc f6e6 0dbe 53d3 71be
00000390: d7e6 80bd b46a 10bc c3e3 4abe fbb8 6ebd
000003a0: 42f2 bdbd 6f3f 93bc b643 19be beb8 b1bd
000003b0: af24 d7bb 003b 74bc 69cd e0bd dc89 5abe
000003c0: 2763 e83c 78be a1be e2b4 e039 d737 c1be
000003d0: cf67 d93d 73b1 8e3e ee24 ccbd 95d1 17bd
000003e0: 9f41 23be ed95 16be 62b5 83be deb3 97bd
000003f0: e9b7 acbd d74d 1fbc 51a7 48be c088 a83e

fc.2.0.weight f4 [128, 256]
-0.014475016 0.013436952 0.082924776 -0.1995169 0.04190664 0.106194526 -0.09389111 0.021016575
-0.114159815 -0.058277067 0.08066538 -0.04966485 0.07880124 0.00781965 0.12674682 0.007648389
0.18408625 -0.07818547 0.012132255 -0.15589102 0.061018657 0.011686253 0.022165325 0.1216384
-0.06613713 0.12519118 0.03617618 -0.118753895 -0.12381024 0.12722728 0.14080779 0.07037454
0.11828037 0.12544681 -0.15467376 -0.013666873 0.07465744 -0.10378822 0.044982284 0.033660322
-0.09021525 -0.15240644 -0.055838805 -0.09167925 -0.00028935753 0.06754402 -0.05041764 0.08542723
0.04921914 -0.031239575 -0.02340859 0.042091396 0.22049963 0.113080956 -0.091415785 -0.008806155
-0.017215962 -0.13155875 0.12695047 -0.044619974 -0.052353147 -0.02088495 -0.054363754 -0.20267928
-0.091629736 0.05712824 -0.31027073 0.032421876 -0.005563724 0.018645298 -0.042942442 0.13289797
-0.13440531 0.0022149694 0.023732327 0.18404672 -0.007335891 -0.037490822 -0.05553482 -0.0014407111
-0.02580782 0.22246197 -0.099198736 0.011029316 -0.09578167 -0.100242466 0.05948355 0.08262966
0.06280535 -0.06750335 0.06543507 0.04362848 -0.08228858 0.13248993 -0.06477639 -0.16765378
0.23854002 -0.09157336 0.0981105 -0.11262455 -0.19364621 0.060537912 0.07049775 0.036034074
0.11680383 0.08177395 -0.11148372 0.06736577 -0.062290687 -0.18832447 0.061098978 -0.065996535
-0.32102898 -0.062431064 0.04440486 0.038044594 0.11900643 0.071566276 0.1153312 0.11897439
-0.14723708 0.026581641 -0.25169355 -0.1197835 0.06354971 0.04095561 0.019350097 -0.015019255
-0.017534647 0.053869475 -0.11706447 -0.12798186 -0.12095911 -0.10706175 -0.0047886604 -0.21508001
-0.02025949 -0.027565977 -0.043258276 -0.07383854 0.0023395994 0.041170295 0.003265165 0.0032204024
0.028750664 0.11090566 -0.15066838 0.02668749 -0.028335372 -0.043097652 -0.15496027 0.09537012
0.08177818 0.09431415 -0.031355962 -0.039763194 -0.035664685 -0.030383881 0.007476471 -0.10193536
0.10683158 -0.038546324 -0.09115773 -0.12828524 -0.09521027 -0.0212117 -0.14216955 -0.10440956
0.07684135 0.0823647 -0.12613194 -0.10582947 0.014787279 -0.002754484 0.106869705 -0.1152846
0.10836534 -0.18127269 0.023558907 -0.2922295 -0.20230505 -0.11870049 -0.17542629 0.18770136
0.15195747 -0.0895151 -0.015997449 0.20035206 -0.0005330088 0.0052241897 -0.1437793 0.012641051
0.03312753 -0.0355847 -0.0920547 -0.15439172 0.017351054 -0.0377933 0.049269497 -0.00119901
0.13931166 -0.121520735 0.021370202 0.13790156 -0.06245253 -0.080175355 0.096468054 0.062118392
-0.03082664 -0.1001137 0.0019785904 0.09742493 -0.0014572816 -0.043550316 0.04147653 -0.07071726
-0.039418984 0.17223975 -0.10496125 0.10998222 -0.04394494 -0.0077384985 0.0575608 0.0774356
-0.014294108 0.07109641 0.0030963507 -0.10322064 0.065865226 0.03424602 -0.08741254 -0.0041959966
-0.02699387 -0.110904165 0.017975025 0.16265972 -0.09065037 -0.07001514 -0.012675993 -0.025773631
0.051370986 0.019025838 0.047806904 -0.11675183 0.09395154 -0.05909151 0.038079835 -0.14388439
0.031380907 0.017007692 -0.039805066 -0.04518179 -0.02052631 -0.08233937 0.008809578 0.029079648
00000000: 9e28 6dbc a926 5c3c 77d4 a93d 294e 4cbe
00000010: 4ca6 2b3d 847c d93d fb49 c0bd f42a ac3c
00000020: 9fcc e9bd efb3 6ebd e433 a53d 5f6d 4bbd
00000030: 8b62 a13d fd1d 003c ebc9 013e 569f fa3b
00000040: 1b81 3c3e b41f a0bd 5ec6 463c e5a1 1fbe
00000050: b3ee 793d b377 3f3c 0e94 b53c 8e1d f93d
00000060: e772 87bd 1e32 003e 792d 143d 3e35 f3bd
00000070: 3990 fdbd de47 023e eb2f 103e 8720 903d
00000080: fb3c f23d 2175 003e cc62 1ebe 05eb 5fbc
00000090: 00e6 983d eb8e d4bd 583f 383d 68df 093d
000000a0: c6c2 b8bd 6f10 1cbe 3bb7 64bd 55c2 bbbd
000000b0: e9b4 97b9 8554 8a3d ba82 4ebd 79f4 ae3d
000000c0: 029a 493d 23ea ffbc 5fc3 bfbc 0768 2c3d
000000d0: a8ca 613e fd96 e73d 3338 bbbd b147 10bc
000000e0: 7d08 8dbc 56b7 06be 4eff 013e 6fc3 36bd
000000f0: 4170 56bd ea16 abbc 87ac 5ebd 288b 4fbe
00000100: 5fa8 bbbd 4dff 693d cedb 9ebe cdcc 043d
00000110: e64f b6bb 06be 983c 6ae4 2fbd 6816 083e
00000120: 8ca1 09be 0529 113b 4c6a c23c be76 3c3e
00000130: ea61 f0bb fa8f 19bd 7b78 63bd 3ed6 bcba
00000140: ec6a d3bc 12cd 633e b528 cbbd 4eb4 343c
00000150: 2e29 c4bd ec4b cdbd 06a5 733d bd39 a93d
00000160: 17a0 803d 323f 8abd d202 863d c7b3 323d
00000170: ea86 a8bd 71ab 073e 7ca9 84bd 6fad 2bbe
00000180: d643 743e d08a bbbd 28ee c83d b3a7 e6bd
00000190: 314b 46be 9af6 773d 2061 903d 7798 133d
000001a0: d936 ef3d 1a79 a73d 9451 e4bd 11f7 893d
000001b0: 8524 7fbd 21d8 40be ec42 7a3d 3129 87bd
000001c0: e95d a4be b7b7 7fbd dfe1 353d a6d4 1b3d
000001d0: a5b9 f33d 5791 923d c432 ec3d d8a8 f33d
000001e0: 51c5 16be bec1 d93c fadd 80be 0d51 f5bd
000001f0: 5a26 823d 12c1 273d 1884 9e3c 5213 76bc
00000200: d2a4 8fbc 3da6 5c3d 7fbf efbd ad0d 03be
00000210: 69b9 f7bd 3143 dbbd 32ea 9cbb ef3d 5cbe
00000220: 3bf7 a5bc 0bd2 e1bc 972f 31bd a938 97bd
00000230: f753 193b 2fa2 283d 61fc 553b 630d 533b
00000240: 8386 eb3c 8222 e33d d048 1abe b99f da3c
00000250: 951f e8bc 2a87 30bd e8ad 1ebe 6951 c33d
00000260: 527b a73d c727 c13d 1c6f 00bd bbde 22bd
00000270: 2215 12bd 9ee7 f8bc 2ffd f43b 7cc3 d0bd
00000280: 84ca da3d c0e2 1dbd e7b0 babd 355d 03be
00000290: 9afd c2bd 29c4 adbc e594 11be aed4 d5bd
000002a0: ff5e 9d3d d3ae a83d bb28 01be 1fbd d8bd
000002b0: 5846 723c 9384 34bb 81de da3d 551a ecbd
000002c0: a6ee dd3d 8c9f 39be 9cfe c03c 1b9f 95be
000002d0: 0e29 4fbe 3e19 f3bd f3a2 33be c934 403e
000002e0: bd9a 1b3e b153 b7bd 150d 83bc 1729 4d3e
000002f0: 9db9 0bba ae2f ab3b e13a 13be 691c 4f3c
00000300: bcb0 073d 43c1 11bd 2d87 bcbd dd18 1ebe
00000310: cc23 8e3c 26cd 1abd d0ce 493d 1928 9dba
00000320: b7a7 0e3e dddf f8bd 9010 af3c 1136 0d3e
00000330: 39ce 7fbd fa32 a4bd 0b91 c53d db6f 7e3d
00000340: 2688 fcbc 6908 cdbd 3dab 013b b986 c73d
00000350: 4202 bfba d161 32bd 4be3 293d 36d4 90bd
00000360: cd75 21bd 9e5f 303e edf5 d6bd 5c3e e13d
00000370: 9cff 33bd 3b93 fdbb e0c4 6b3d 8e96 9e3d
00000380: d631 6abc ff9a 913d 25ec 4a3b 5865 d3bd
00000390: 59e4 863d 8e45 0c3d 5905 b3bd 927e 89bb
000003a0: 4022 ddbc b921 e3bd 5c40 933c 4590 263e
000003b0: e7a6 b9bd 1964 8fbd f8ae 4fbc 3923 d3bc
000003c0: 626a 523d 13dc 9b3c 2cd1 433d 951b efbd
000003d0: aa69 c03d f009 72bd 9af9 1b3d 6e56 13be
000003e0: 4489 003d b753 8b3c a30a 23bd 8a10 39bd
000003f0: cb26 a8bc 8ba1 a8bd 0c56 103c 7138 ee3c

fc.2.0.bias f4 [128]
-0.0069254357 0.07325106 -0.05186226 -0.0050147283 0.057865568 0.16922584 0.052236784 0.16221917
0.032277133 -0.15765484 -0.12573051 -0.2267226 -0.040858455 0.05517089 -0.10941874 0.06711967
0.06550186 0.07959865 -0.018811464 -0.13635895 0.04078779 0.08372747 -0.008677848 -0.13859877
-0.004837558 0.097534515 -0.026325779 -0.14257824 0.17249319 0.030574009 0.036436092 -0.14909641
0.17318277 0.041182823 -0.13433112 -0.121713385 0.1739455 -0.11426008 0.08523482 -0.057942268
-0.05597737 0.083037205 -0.13575085 -0.0140723325 -0.051567923 0.13502696 0.072082624 -0.00620262
-0.048250597 -0.04534813 0.20199521 -0.04650906 0.15232429 0.1345084 -0.02077991 0.06037184
0.14390805 0.09881001 -0.030436117 0.13912071 0.016859526 0.088971175 -0.028972795 0.158957
0.08936353 -0.054456245 0.08712118 0.061660737 0.048360568 -0.017739665 -0.051800765 0.056758866
0.19199765 0.10795245 0.1639946 -0.06492068 0.06554255 -0.05481653 0.06403421 -0.16239639
-0.031075392 -0.13625705 -0.084787644 -0.082306586 0.07861 -0.09909566 0.14086483 -0.019502336
0.021271031 0.040635344 0.13547857 0.04857474 -0.18176387 0.07985481 -0.1778905 -0.012050505
-0.012011102 -0.05037215 0.043820396 -0.08375811 0.05694854 0.07631411 -0.1266495 -0.030062797
0.046035286 -0.0071518077 -0.085263036 -0.005823375 -0.029125081 -0.065313324 -0.073481694 -0.054042835
-0.06555365 -0.04117547 0.085690364 0.06661839 0.116306566 0.05243555 -0.086605616 -0.11259336
-0.057731237 -0.12871066 0.053068783 0.15084323 0.16324304 -0.067716934 0.10290304 0.089513004
00000000: c4ee e2bb a704 963d 856d 54bd 9752 a4bb
00000010: 7204 6d3d 8a49 2d3e 3df6 553d c81c 263e
00000020: 0735 043d 4570 21be 80bf 00be f829 68be
00000030: 325b 27bd dffa 613d ef16 e0bd 0a76 893d
00000040: d725 863d 9e04 a33d 801a 9abc aea1 0bbe
00000050: 1911 273d 4f79 ab3d 882d 0ebc d6ec 0dbe
00000060: 6184 9ebb 2dc0 c73d 29a9 d7bc 0800 12be
00000070: 0ea2 303e 5876 fa3c 033e 153d bbac 18be
00000080: d356 313e 52af 283d 198e 09be de44 f9bd
00000090: c51e 323e 3001 eabd 988f ae3d df54 6dbd
000000a0: 8748 65bd 690f aa3d 4502 0bbe a48f 66bc
000000b0: e338 53bd 8244 0a3e 0ea0 933d 593f cbbb
000000c0: 6ba2 45bd f6be 39bd d5d7 4e3e 4980 3ebd
000000d0: e6fa 1b3e 92bc 093e a13a aabc 7648 773d
000000e0: a25c 133e e75c ca3d 2a55 f9bc a975 0e3e
000000f0: fd1c 8a3c 8536 b63d 5b58 edbc a0c5 223e
00000100: 3a04 b73d 830d 5fbd 976c b23d f88f 7c3d
00000110: bb15 463d c652 91bc 0a2d 54bd fc7b 683d
00000120: 089b 443e 2d16 dd3d 33ee 273e 22f5 84bd
00000130: 2c3b 863d 4c87 60bd 5e24 833d 3d4b 26be
00000140: d291 febc f886 0bbe 25a5 adbd 5b90 a8bd
00000150: 48fe a03d aaf2 cabd df3e 103e 5dc3 9fbc
00000160: 9640 ae3c 3f71 263d e5ba 0a3e 4ef6 463d
00000170: 4f20 3abe eb8a a33d ed28 36be 7b6f 45bc
00000180: 37ca 44bc 0753 4ebd 047d 333d 5f89 abbd
00000190: df42 693d 924a 9c3d 68b0 01be 4146 f6bc
000001a0: 7f8f 3c3d b659 eabb 639e aebd 03d2 bebb
000001b0: b997 eebc fec2 85bd 927d 96bd 055c 5dbd
000001c0: fe40 86bd 9ca7 28bd 6e7e af3d 396f 883d
000001d0: 2332 ee3d a9c6 563d 495e b1bd 5997 e6bd
000001e0: 9777 6cbd bacc 03be a75e 593d a676 1a3e
000001f0: 2f29 273e 2daf 8abd d4be d23d 9852 b73d

fc.3.0.weight f4 [64, 128]
0.19428968 -0.05682177 -0.18885994 0.06838097 0.10613682 -0.16972482 -0.059604805 0.030317597
0.008076468 -0.032497775 0.019099897 0.11133244 -0.036333557 -0.19401018 0.015947053 -0.053150587
-0.12357363 0.017631207 0.058530368 -0.059093073 -0.119766675 -0.05312646 -0.14906082 0.07421397
0.16957013 -0.15000701 -0.33277443 -0.03221472 -0.016248383 -0.068475544 0.12084735 0.09956941
0.006487312 0.148977 0.065990485 -0.06454327 0.0855367 0.07202015 -0.090947665 -0.07933067
0.016134117 0.03935062 0.011408055 0.006437581 -0.13942198 0.06508934 -0.02908555 -0.088031694
0.015272748 -0.13197117 -0.037380625 0.004719052 0.039344948 0.112513185 -0.015571059 0.083455786
0.07201597 -0.073235795 -0.06653054 0.22630201 0.011050347 0.0023803397 -0.12313037 0.03826877
0.1719081 0.0037247601 0.074960105 -0.14117354 0.11821608 0.13296834 -0.00015253738 -0.065951884
-0.09541081 -0.1656078 -0.076862626 0.097113766 -0.017671606 0.22203387 0.09628527 0.08909908
-0.07130807 -0.05234232 0.20184797 -0.06278113 -0.071745396 0.03946972 0.01683102 -0.06398003
-0.046274554 0.028249783 -0.07641839 0.10774472 -0.03519539 -0.1717179 0.10792485 0.15976875
0.07577738 0.16083713 -0.021477364 0.074527636 -0.013342412 0.0075582755 0.11614599 -0.20625183
0.05808182 -0.113245144 0.043072175 0.015339395 -0.0431371 -0.14711256 -0.13322079 -0.08263597
-0.06973164 0.13686705 -0.03240205 -0.04995284 0.010363322 0.14649974 -0.034408752 -0.060093086
0.045924973 -0.054183543 0.21025296 -0.013452525 -0.09545166 0.143136 -0.15625714 -0.05242266
0.15719378 -0.088124976 -0.12237611 -0.02021851 0.0743591 -0.15279344 0.064500324 -0.15139271
-0.10544549 -0.03585038 0.3091535 0.07888331 0.035303712 -0.06638376 0.007254475 0.055669904
0.016498704 -0.04267588 -0.038051546 -0.011504768 -0.02490356 0.109729216 -0.010536566 0.2341301
0.16241024 -0.16401288 -0.010753364 0.0018113815 -0.010361414 0.0076109483 0.007570249 -0.046233546
-0.078000195 0.01721853 0.18986945 -0.1075778 -0.15459026 0.16240487 -0.20293286 -0.058962055
0.016199393 -0.034827206 -0.026439032 -0.072621465 -0.12295083 0.09157993 -0.11815943 0.0124053
-0.01785712 0.019803513 0.032004487 -0.044062316 0.007552256 0.0094524715 -0.019769922 -0.019283172
-0.069155306 -0.24668857 -0.005204011 -0.020624733 0.06680702 -0.074711904 -0.11765817 -0.04743815
0.013008558 0.122851655 -0.02036722 -0.06609377 0.08855363 0.04879448 -0.09733498 -0.12201857
-0.20109455 0.03372394 -0.015270706 -0.0010587632 0.0077787396 0.20967905 0.042347904 -0.026631216
-0.075020455 -0.050560176 0.1506721 0.026979463 0.027981212 0.0709162 0.036975954 -0.06003221
-0.06240244 -0.05946433 -0.065877125 0.057629194 0.036565654 -0.10636153 0.06743973 -0.0758266
-0.20579821 0.16828549 0.13102433 0.12869918 -0.097080156 0.021976423 -0.014285223 -0.015731385
-0.1176769 -0.04399261 0.096328616 0.19060701 -0.031154811 -0.07037572 -0.036759276 0.017323526
0.09496289 0.065742925 -0.09080712 -0.044086907 0.19791415 -0.07976604 0.15320396 0.10239109
0.100131124 0.113137335 0.030766128 -0.10022765 -0.0042457 0.06903234 -0.06318097 -0.1460359
00000000: e0f3 463e f2bd 68bd 8064 41be 520b 8c3d
00000010: 435e d93d 58cc 2dbe 2b24 74bd 9c5c f83c
00000020: 2953 043c 631c 05bd 6377 9c3c 4302 e43d
00000030: 7fd2 14bd 9baa 46be 65a3 823c 6eb4 59bd
00000040: 2c14 fdbd 526f 903c 8abd 6f3d 940b 72bd
00000050: 3b48 f5bd 229b 59bd 66a3 18be 7efd 973d
00000060: cba3 2d3e 709b 19be 6961 aabe 95f3 03bd
00000070: 541b 85bc e83c 8cbd d17e f73d 0ceb cb3d
00000080: 8493 d43b 6d8d 183e 0526 873d 432f 84bd
00000090: de2d af3d 4d7f 933d c542 babd 1e78 a2bd
000000a0: b22b 843c 1e2e 213d dae8 3a3c 58f2 d23b
000000b0: a3c4 0ebe 8f4d 853d d244 eebc f649 b4bd
000000c0: 8c3a 7a3c 7323 07be 6d1c 19bd 47a2 9a3b
000000d0: 2b28 213d 506d e63d c11d 7fbc deea aa3d
000000e0: 1c7d 933d a6fc 95bd 2a41 88bd b7bb 673e
000000f0: 840c 353c 79ff 1b3b c72b fcbd b7bf 1c3d
00000100: ad08 303e 1b1b 743b af84 993d cc8f 10be
00000110: 461b f23d da28 083e 71f2 1fb9 c811 87bd
00000120: be66 c3bd 1795 29be 276a 9dbd 95e3 c63d
00000130: 0bc4 90bc d95c 633e 3631 c53d 9479 b63d
00000140: f709 92bd e764 56bd 3cb1 4e3e 6593 80bd
00000150: 40ef 92bd 00ab 213d 35e1 893c f607 83bd
00000160: 638a 3dbd 176c e73c 3f81 9cbd 44a9 dc3d
00000170: 0b29 10bd d1d6 2fbe b407 dd3d 6b9a 233e
00000180: 2c31 9b3d 7db2 243e 4cf1 afbc f2a1 983d
00000190: 229a 5abc 69ab f73b f3dd ed3d ae33 53be
000001a0: 34e7 6d3d 12ed e7bd 736c 303d 1652 7b3c
000001b0: 87b0 30bd ada4 16be 086b 08be 0c3d a9bd
000001c0: 76cf 8ebd e026 0c3e 03b8 04bd 599b 4cbd
000001d0: ecca 293c 0704 163e 31f0 0cbd 2b24 76bd
000001e0: d31b 3c3d 90ef 5dbd 8d4c 573e fb67 5cbc
000001f0: 297c c3bd 3e92 123e df01 20be 25b9 56bd
00000200: 68f7 203e de7a b4bd 53a0 fabd 4aa1 a5bc
00000210: 9549 983d e275 1cbe bf18 843d b106 1bbe
00000220: cef3 d7bd d9d7 12bd 5e49 9e3e 938d a13d
00000230: a09a 103d 35f4 87bd f2b6 ed3b 2006 643d
00000240: 4a28 873c e7cc 2ebd f0db 1bbd 7f7e 3cbc
00000250: 8d02 ccbc b6b9 e03d 90a1 2cbc cdbf 6f3e
00000260: df4e 263e fef2 27be e12e 30bc e16b ed3a
00000270: ecc2 29bc 4365 f93b da0f f83b 635f 3dbd
00000280: 91be 9fbd e00d 8d3c 236d 423e c051 dcbd
00000290: e94c 1ebe 764d 263e a2cd 4fbe 3282 71bd
000002a0: 97b4 843c f9a6 0ebd ab96 d8bc 90ba 94bd
000002b0: a5cd fbbd 428e bb3d 92fd f1bd 993f 4b3c
000002c0: 1849 92bc fa3a a23c 2317 033d b07a 34bd
000002d0: ea78 f73b 8ade 1a3c 88f4 a1bc bef7 9dbc
000002e0: 4ca1 8dbd ee9b 7cbe 6986 aabb 33f5 a8bc
000002f0: 1ed2 883d 8e02 99bd c4f6 f0bd 814e 42bd
00000300: d921 553c a699 fb3d 28d9 a6bc 2c5c 87bd
00000310: 9b5b b53d b8dc 473d 9057 c7bd dfe4 f9bd
00000320: bbeb 4dbe 1d22 0a3d fc31 7abc 33c6 8aba
00000330: cce4 fe3b 1bb6 563e ff74 2d3d b529 dabc
00000340: 53a4 99bd 3018 4fbd c949 1a3e 0904 dd3c
00000350: db38 e53c 833c 913d 1974 173d 56e4 75bd
00000360: b399 7fbd df90 73bd 96ea 86bd 970c 6c3d
00000370: dec5 153d 13d4 d9bd d71d 8a3d fa4a 9bbd
00000380: c4bc 52be 0853 2c3e 3e2b 063e b8c9 033e
00000390: f6d1 c6bd e607 b43c 910c 6abc 1bdf 80bc
000003a0: 9600 f1bd 9831 34bd f047 c53d 7c2e 433e
000003b0: 6038 ffbc 2521 90bd e590 16bd 11ea 8d3c
000003c0: e77b c23d 3aa4 863d 15f9 b9bd 7994 34bd
000003d0: 02aa 4a3e 615c a3bd 80e1 1c3e 6bb2 d13d
000003e0: 8c11 cd3d 8cb4 e73d 3f09 fc3c 2744 cdbd
000003f0: 831f 8bbb d460 8d3d 0665 81bd 6f8a 15be

fc.3.0.bias f4 [64]
-0.07055512 -0.1590061 0.00093076384 0.009413778 -0.053818826 -0.12535343 -0.016266162 0.0004077909
0.045412775 0.11002262 -0.102280475 0.103145644 0.013904738 -0.060806133 0.05024026 -0.11404261
-0.06283851 -0.035193793 0.080558755 0.13675566 0.08402668 0.21070807 -0.20931192 0.036925837
-0.11369341 -0.040232394 -0.12611192 0.027861482 0.12496055 -0.014800333 0.00603203 -0.024736714
0.054974645 0.07714562 0.0943673 -0.03672389 0.14713475 0.0048019006 -0.060840443 0.09424287
0.09039997 0.13585387 -0.02846506 -0.06730741 -0.14814393 -0.016561529 0.11997819 -0.0109136505
-0.13452064 0.1099451 0.03070094 -0.012702591 -0.0030626014 -0.086298175 0.19327277 -0.07177828
0.27864817 0.013023262 0.12544511 0.07190597 0.1665957 -0.06825495 0.05701356 0.14142069
00000000: 347f 90bd 7fd2 22be 81fe 733a 3f3c 1a3c
00000010: 2171 5cbd a65c 00be 9d40 85bc c5cc d539
00000020: bf02 3a3d 8a53 e13d 6d78 d1bd 063e d33d
00000030: b3d0 633c da0f 79bd bbc8 4d3d 2c8f e9bd
00000040: 7ab1 80bd 5e27 10bd fdfb a43d ad09 0c3e
00000050: 2e16 ac3d dbc3 573e dd55 56be 8c3f 173d
00000060: 17d8 e8bd b9ca 24bd 7c23 01be c33d e43c
00000070: 51eb ff3d 197d 72bc 56a8 c53b a6a4 cabc
00000080: 182d 613d 86fe 9d3d a543 c13d ca6b 16bd
00000090: 7eaa 163e 4359 9d3b d433 79bd 6802 c13d
000000a0: 9f23 b93d 471d 0b3e 8f2f e9bc 78d8 89bd
000000b0: 0bb3 17be 0bac 87bc 20b7 f53d 2bcf 32bc
000000c0: c7bf 09be e62a e13d 8a80 fb3c 871e 50bc
000000d0: edb5 48bb 19bd b0bd 4ce9 453e 7e00 93bd
000000e0: f9aa 8e3e 855f 553c af74 003e 7043 933d
000000f0: 1098 2a3e 40c9 8bbd 0d87 693d 96d0 103e

fc.4.0.weight f4 [10, 64]
-0.045412935 0.19495915 0.25216877 -0.18956274 -0.2015796 -0.24719012 0.15010525 0.21290952
0.25243586 0.07504203 -0.17342651 0.21816431 -0.21411653 -0.090653464 0.23908554 -0.12755397
0.24384823 -0.21534853 -0.21910636 -0.25866395 -0.11791365 0.17439286 -0.14312375 0.1693408
0.21403866 0.29717168 0.27067745 0.18728648 -0.30416337 -0.08857036 -0.10938391 -0.2186038
-0.12528095 -0.28178197 0.071503624 0.051720515 -0.29280853 -0.23907562 0.17974982 0.08576585
0.026875202 -0.19082673 0.046703257 -0.05674022 -0.12697546 0.2530191 -0.22890566 0.13510093
-0.243984 -0.23540893 -0.29989865 -0.08914639 0.18221857 0.2610024 0.17854187 0.09864796
-0.23623273 -0.22756192 -0.32169366 0.27510867 -0.12424173 0.22153257 -0.28399366 -0.25956452
0.14860727 0.22605215 0.07587333 0.1789117 -0.11123415 0.21148968 0.15066433 -0.13032648
-0.027172744 -0.0933822 -0.15303594 -0.18610802 -0.090869024 -0.08727758 -0.37045842 -0.11807989
-0.14377728 -0.2240352 -0.08582057 0.010672048 -0.39286026 -0.21126547 0.23825055 0.18157092
-0.02393406 -0.2687001 0.17360224 -0.07498207 0.13037221 -0.13680352 0.23855534 -0.31959447
0.3195801 0.121479616 -0.3626877 -0.2434197 -0.3376956 0.1307777 -0.17094018 0.078460604
0.07415186 0.3584033 0.17019139 0.2509358 0.26892707 -0.19702108 0.17438348 -0.15162493
0.11694595 0.21301523 -0.075344965 0.26747033 0.16199449 -0.26682913 0.19820502 -0.23193377
-0.022692956 0.15967683 -0.23005645 -0.1707304 -0.09373352 0.09670242 0.030723946 -0.35024533
-0.008404885 -0.015258809 -0.18145987 0.18626785 -0.09337212 0.086417645 -0.15812793 0.09548909
-0.008893351 -0.095181905 0.13748036 -0.16523364 -0.15248235 -0.12957267 -0.11269775 0.10672454
0.006493394 0.14565432 0.22224408 0.1006954 0.09816395 -0.14209118 -0.075152285 -0.092088796
-0.011396773 0.093276195 -0.17794198 -0.19795763 0.16007113 0.11899262 -0.117580265 0.18989585
-0.063538216 0.13550039 0.113666415 0.16500561 0.10130227 0.14315294 -0.16460359 -0.10882801
-0.12007189 -0.0974167 -0.1149173 0.12484083 0.055342734 0.053361446 0.1380981 -0.11899909
0.14782406 -0.0946565 -0.021742318 0.1034241 -0.152138 0.18078198 -0.14998828 -0.09614311
-0.1906045 0.2120264 0.06573414 -0.10987082 -0.0132091 0.04483185 0.15443869 0.139772
0.21777004 0.121199995 -0.14643806 -0.098458625 0.07050974 0.09229325 0.12618595 0.07687651
0.18277012 -0.09075506 -0.0708317 -0.12239611 0.14279756 0.11929429 -0.14539374 -0.11974461
-0.17594253 0.10949078 0.10410177 -0.14810392 0.055152696 0.11640295 -0.15146175 0.112647906
0.22546913 -0.15619493 0.0991519 0.054104768 0.12775081 -0.109776795 -0.107218035 0.19152784
-0.06369753 -0.09648937 0.101679556 0.17828992 0.07907644 0.1313162 -0.104029156 0.031649522
-0.16833462 0.13074958 0.111525476 -0.10086525 -0.03259988 -0.19245753 -0.085877806 0.14670724
0.059596688 0.059057612 0.16353865 -0.115041316 -0.17356345 -0.05330451 0.11584955 -0.16867064
0.15713799 0.25086406 0.13987266 -0.092994265 0.21424347 -0.21402492 0.22823581 0.11227527
00000000: ea02 3abd 5fa3 473e 441c 813e bc1c 42be
00000010: e26a 4ebe 681f 7dbe 31b5 193e f404 5a3e
00000020: 463f 813e a3af 993d b896 31be 7766 5f3e
00000030: 5d41 5bbe 86a8 b9bd d7d2 743e 829d 02be
00000040: 5ab3 793e 5384 5cbe 6b5d 60be 9a6f 84be
00000050: b67c f1bd 0b94 323e 088f 12be ad67 2d3e
00000060: f32c 5b3e e326 983e 3c96 8a3e 07c8 3f3e
00000070: 4dbb 9bbe 6064 b5bd ac04 e0bd add9 5fbe
00000080: a649 00be ba45 90be 7e70 923d e4d8 533d
00000090: 00eb 95be 3dd0 74be 5610 383e 02a6 af3d
000000a0: 6229 dc3c 1568 43be ea4b 3f3d 6f68 68bd
000000b0: db05 02be b88b 813e 3f66 6abe e657 0a3e
000000c0: f1d6 79be 0a0f 71be 518c 99be 6292 b6bd
000000d0: 8197 3a3e 1ba2 853e aed3 363e f107 ca3d
000000e0: fee6 71be fe05 69be 08b5 a4be 0bdb 8c3e
000000f0: 7372 febd 6fd9 623e 9e67 91be a4e5 84be
00000100: 812c 183e 377a 673e 7a63 9b3d a134 373e
00000110: bbce e3bd c090 583e c047 1a3e 4e74 05be
00000120: 6099 debc 2b3f bfbd 74b5 1cbe 1a93 3ebe
00000130: 8a19 babd 96be b2bd baac bdbe dfd3 f1bd
00000140: 5a3a 13be 7c69 65be b2c2 afbd d0d9 2e3c
00000150: fb24 c9be fa55 58be f4f7 733e baed 393e
00000160: 5d11 c4bc 0f93 89be c9c4 313e 3390 99bd
00000170: 4b80 053e 3916 0cbe da47 743e e3a1 a3be
00000180: 01a0 a33e 4eca f83d 34b2 b9be 0443 79be
00000190: 70e6 acbe 97ea 053e f10a 2fbe f4af a03d
000001a0: eedc 973d a380 b73e a746 2e3e a87a 803e
000001b0: cfb0 893e e5bf 49be 9591 323e 9143 1bbe
000001c0: 5c81 ef3d aa20 5a3e 764e 9abd dff1 883e
000001d0: e2e1 253e d49d 88be 42f6 4a3e 0c80 6dbe
000001e0: 94e6 b9bc 5382 233e eb93 6bbe f3d3 2ebe
000001f0: 5cf7 bfbd eb0b c63d c9b0 fb3c 5b53 b3be
00000200: a5b4 09bc 1500 7abc 9ed0 39be 00bd 3e3e
00000210: e239 bfbd bcfb b03d 4aec 21be c98f c33d
00000220: 6bb5 11bc bbee c2bd a7c7 0c3e 0233 29be
00000230: 5524 1cbe b3ae 04be 14ce e6bd 6592 da3d
00000240: 89c6 d43b 6826 153e f493 633e 6439 ce3d
00000250: 2e0a c93d 5a80 11be 71e9 99bd 0d99 bcbd
00000260: 88b9 3abc 9707 bf3d 6c36 36be 68b5 4abe
00000270: b0e9 233e 67b2 f33d eccd f0bd 0f74 423e
00000280: 5320 82bd 9dc0 0a3e f0c9 e83d 3bf7 283e
00000290: 9177 cf3d af96 123e d88d 28be 38e1 debd
000002a0: 40e8 f5bd 6882 c7bd c359 ebbd 8dac ff3d
000002b0: 10af 623d 8891 5a3d 9769 0d3e cbb5 f3bd
000002c0: 315f 173e 44db c1bd f21c b2bc 04d0 d33d
000002d0: 10ca 1bbe e91e 393e 8796 19be aee6 c4bd
000002e0: d32d 43be 731d 593e 9f9f 863d f403 e1bd
000002f0: fb6a 58bc 9aa1 373d 2d25 1e3e 6420 0f3e
00000300: 1cff 5e3e b437 f83d dcf3 15be ada4 c9bd
00000310: 6967 903d 3e04 bd3d e436 013e 6f71 9d3d
00000320: 1728 3b3e cadd b9bd 3610 91bd d0aa fabd
00000330: 8639 123e 9150 f43d 19e2 14be a93c f5bd
00000340: 472a 34be b43c e03d 4f33 d53d 8ea8 17be
00000350: cbe7 613d ab64 ee3d ca18 1bbe f2b3 e63d
00000360: 61e1 663e 90f1 1fbe 2710 cb3d f69c 5d3d
00000370: 1cd1 023e a8d2 e0bd 2195 dbbd e01f 443e
00000380: da73 82bd 389c c5bd 5f3d d03d a291 363e
00000390: d4f2 a13d c177 063e 3d0d d5bd eea2 013d
000003a0: e95f 2cbe 38e3 053e 7867 e43d 7192 cebd
000003b0: 7487 05bd 9613 45be b4e0 afbd 6c3a 163e
000003c0: a81b 743d 65e6 713d ad76 273e c89a ebbd
000003d0: 9eba 31be d455 5abd 8742 ed3d ffb7 2cbe
000003e0: c8e8 203e 4171 803e c73a 0f3e c773 bebd
000003f0: a462 5b3e 5929 5bbe a6b6 693e 94f0 e53d

fc.4.0.bias f4 [10]
-0.099614814 -0.07388895 -0.010094985 -0.09381871 -0.15992954 0.161227 0.19764672 -0.08669148
0.075240806 -0.038809467
00000000: da02 ccbd 1753 97bd 7065 25bc 0624 c0bd
00000010: 92c4 23be b118 253e e763 4a3e 4d8b b1bd
00000020: da17 9a3d adf6 1ebd
